{"keras_version": "2.2.4", "class_name": "Model", "backend": "tensorflow", "config": {"name": "model_1", "layers": [{"name": "input_1", "inbound_nodes": [], "class_name": "InputLayer", "config": {"name": "input_1", "batch_input_shape": [null, 224, 224, 3], "dtype": "float32", "sparse": false}}, {"name": "Conv1_pad", "inbound_nodes": [[["input_1", 0, 0, {}]]], "class_name": "ZeroPadding2D", "config": {"name": "Conv1_pad", "data_format": "channels_last", "padding": [[0, 1], [0, 1]], "trainable": true}}, {"name": "Conv1", "inbound_nodes": [[["Conv1_pad", 0, 0, {}]]], "class_name": "Conv2D", "config": {"data_format": "channels_last", "kernel_regularizer": null, "padding": "valid", "trainable": true, "strides": [2, 2], "filters": 32, "activation": "linear", "dilation_rate": [1, 1], "kernel_size": [3, 3], "bias_constraint": null, "kernel_initializer": {"class_name": "VarianceScaling", "config": {"seed": null, "mode": "fan_avg", "scale": 1.0, "distribution": "uniform"}}, "name": "Conv1", "activity_regularizer": null, "bias_initializer": {"class_name": "Zeros", "config": {}}, "use_bias": false, "bias_regularizer": null, "kernel_constraint": null}}, {"name": "bn_Conv1", "inbound_nodes": [[["Conv1", 0, 0, {}]]], "class_name": "BatchNormalization", "config": {"moving_variance_initializer": {"class_name": "Ones", "config": {}}, "trainable": true, "beta_regularizer": null, "epsilon": 0.001, "gamma_initializer": {"class_name": "Ones", "config": {}}, "axis": -1, "moving_mean_initializer": {"class_name": "Zeros", "config": {}}, "gamma_regularizer": null, "beta_constraint": null, "scale": true, "gamma_constraint": null, "name": "bn_Conv1", "beta_initializer": {"class_name": "Zeros", "config": {}}, "center": true, "momentum": 0.999}}, {"name": "Conv1_relu", "inbound_nodes": [[["bn_Conv1", 0, 0, {}]]], "class_name": "ReLU", "config": {"name": "Conv1_relu", "max_value": 6.0, "negative_slope": 0.0, "trainable": true, "threshold": 0.0}}, {"name": "expanded_conv_depthwise", "inbound_nodes": [[["Conv1_relu", 0, 0, {}]]], "class_name": "DepthwiseConv2D", "config": {"data_format": "channels_last", "depthwise_constraint": null, "padding": "same", "dilation_rate": [1, 1], "trainable": true, "strides": [1, 1], "bias_regularizer": null, "depth_multiplier": 1, "use_bias": false, "kernel_size": [3, 3], "bias_constraint": null, "depthwise_initializer": {"class_name": "VarianceScaling", "config": {"seed": null, "mode": "fan_avg", "scale": 1.0, "distribution": "uniform"}}, "name": "expanded_conv_depthwise", "activity_regularizer": null, "bias_initializer": {"class_name": "Zeros", "config": {}}, "activation": "linear", "depthwise_regularizer": null}}, {"name": "expanded_conv_depthwise_BN", "inbound_nodes": [[["expanded_conv_depthwise", 0, 0, {}]]], "class_name": "BatchNormalization", "config": {"moving_variance_initializer": {"class_name": "Ones", "config": {}}, "trainable": true, "beta_regularizer": null, "epsilon": 0.001, "gamma_initializer": {"class_name": "Ones", "config": {}}, "axis": -1, "moving_mean_initializer": {"class_name": "Zeros", "config": {}}, "gamma_regularizer": null, "beta_constraint": null, "scale": true, "gamma_constraint": null, "name": "expanded_conv_depthwise_BN", "beta_initializer": {"class_name": "Zeros", "config": {}}, "center": true, "momentum": 0.999}}, {"name": "expanded_conv_depthwise_relu", "inbound_nodes": [[["expanded_conv_depthwise_BN", 0, 0, {}]]], "class_name": "ReLU", "config": {"name": "expanded_conv_depthwise_relu", "max_value": 6.0, "negative_slope": 0.0, "trainable": true, "threshold": 0.0}}, {"name": "expanded_conv_project", "inbound_nodes": [[["expanded_conv_depthwise_relu", 0, 0, {}]]], "class_name": "Conv2D", "config": {"data_format": "channels_last", "kernel_regularizer": null, "padding": "same", "trainable": true, "strides": [1, 1], "filters": 16, "activation": "linear", "dilation_rate": [1, 1], "kernel_size": [1, 1], "bias_constraint": null, "kernel_initializer": {"class_name": "VarianceScaling", "config": {"seed": null, "mode": "fan_avg", "scale": 1.0, "distribution": "uniform"}}, "name": "expanded_conv_project", "activity_regularizer": null, "bias_initializer": {"class_name": "Zeros", "config": {}}, "use_bias": false, "bias_regularizer": null, "kernel_constraint": null}}, {"name": "expanded_conv_project_BN", "inbound_nodes": [[["expanded_conv_project", 0, 0, {}]]], "class_name": "BatchNormalization", "config": {"moving_variance_initializer": {"class_name": "Ones", "config": {}}, "trainable": true, "beta_regularizer": null, "epsilon": 0.001, "gamma_initializer": {"class_name": "Ones", "config": {}}, "axis": -1, "moving_mean_initializer": {"class_name": "Zeros", "config": {}}, "gamma_regularizer": null, "beta_constraint": null, "scale": true, "gamma_constraint": null, "name": "expanded_conv_project_BN", "beta_initializer": {"class_name": "Zeros", "config": {}}, "center": true, "momentum": 0.999}}, {"name": "block_1_expand", "inbound_nodes": [[["expanded_conv_project_BN", 0, 0, {}]]], "class_name": "Conv2D", "config": {"data_format": "channels_last", "kernel_regularizer": null, "padding": "same", "trainable": true, "strides": [1, 1], "filters": 96, "activation": "linear", "dilation_rate": [1, 1], "kernel_size": [1, 1], "bias_constraint": null, "kernel_initializer": {"class_name": "VarianceScaling", "config": {"seed": null, "mode": "fan_avg", "scale": 1.0, "distribution": "uniform"}}, "name": "block_1_expand", "activity_regularizer": null, "bias_initializer": {"class_name": "Zeros", "config": {}}, "use_bias": false, "bias_regularizer": null, "kernel_constraint": null}}, {"name": "block_1_expand_BN", "inbound_nodes": [[["block_1_expand", 0, 0, {}]]], "class_name": "BatchNormalization", "config": {"moving_variance_initializer": {"class_name": "Ones", "config": {}}, "trainable": true, "beta_regularizer": null, "epsilon": 0.001, "gamma_initializer": {"class_name": "Ones", "config": {}}, "axis": -1, "moving_mean_initializer": {"class_name": "Zeros", "config": {}}, "gamma_regularizer": null, "beta_constraint": null, "scale": true, "gamma_constraint": null, "name": "block_1_expand_BN", "beta_initializer": {"class_name": "Zeros", "config": {}}, "center": true, "momentum": 0.999}}, {"name": "block_1_expand_relu", "inbound_nodes": [[["block_1_expand_BN", 0, 0, {}]]], "class_name": "ReLU", "config": {"name": "block_1_expand_relu", "max_value": 6.0, "negative_slope": 0.0, "trainable": true, "threshold": 0.0}}, {"name": "block_1_pad", "inbound_nodes": [[["block_1_expand_relu", 0, 0, {}]]], "class_name": "ZeroPadding2D", "config": {"name": "block_1_pad", "data_format": "channels_last", "padding": [[0, 1], [0, 1]], "trainable": true}}, {"name": "block_1_depthwise", "inbound_nodes": [[["block_1_pad", 0, 0, {}]]], "class_name": "DepthwiseConv2D", "config": {"data_format": "channels_last", "depthwise_constraint": null, "padding": "valid", "dilation_rate": [1, 1], "trainable": true, "strides": [2, 2], "bias_regularizer": null, "depth_multiplier": 1, "use_bias": false, "kernel_size": [3, 3], "bias_constraint": null, "depthwise_initializer": {"class_name": "VarianceScaling", "config": {"seed": null, "mode": "fan_avg", "scale": 1.0, "distribution": "uniform"}}, "name": "block_1_depthwise", "activity_regularizer": null, "bias_initializer": {"class_name": "Zeros", "config": {}}, "activation": "linear", "depthwise_regularizer": null}}, {"name": "block_1_depthwise_BN", "inbound_nodes": [[["block_1_depthwise", 0, 0, {}]]], "class_name": "BatchNormalization", "config": {"moving_variance_initializer": {"class_name": "Ones", "config": {}}, "trainable": true, "beta_regularizer": null, "epsilon": 0.001, "gamma_initializer": {"class_name": "Ones", "config": {}}, "axis": -1, "moving_mean_initializer": {"class_name": "Zeros", "config": {}}, "gamma_regularizer": null, "beta_constraint": null, "scale": true, "gamma_constraint": null, "name": "block_1_depthwise_BN", "beta_initializer": {"class_name": "Zeros", "config": {}}, "center": true, "momentum": 0.999}}, {"name": "block_1_depthwise_relu", "inbound_nodes": [[["block_1_depthwise_BN", 0, 0, {}]]], "class_name": "ReLU", "config": {"name": "block_1_depthwise_relu", "max_value": 6.0, "negative_slope": 0.0, "trainable": true, "threshold": 0.0}}, {"name": "block_1_project", "inbound_nodes": [[["block_1_depthwise_relu", 0, 0, {}]]], "class_name": "Conv2D", "config": {"data_format": "channels_last", "kernel_regularizer": null, "padding": "same", "trainable": true, "strides": [1, 1], "filters": 24, "activation": "linear", "dilation_rate": [1, 1], "kernel_size": [1, 1], "bias_constraint": null, "kernel_initializer": {"class_name": "VarianceScaling", "config": {"seed": null, "mode": "fan_avg", "scale": 1.0, "distribution": "uniform"}}, "name": "block_1_project", "activity_regularizer": null, "bias_initializer": {"class_name": "Zeros", "config": {}}, "use_bias": false, "bias_regularizer": null, "kernel_constraint": null}}, {"name": "block_1_project_BN", "inbound_nodes": [[["block_1_project", 0, 0, {}]]], "class_name": "BatchNormalization", "config": {"moving_variance_initializer": {"class_name": "Ones", "config": {}}, "trainable": true, "beta_regularizer": null, "epsilon": 0.001, "gamma_initializer": {"class_name": "Ones", "config": {}}, "axis": -1, "moving_mean_initializer": {"class_name": "Zeros", "config": {}}, "gamma_regularizer": null, "beta_constraint": null, "scale": true, "gamma_constraint": null, "name": "block_1_project_BN", "beta_initializer": {"class_name": "Zeros", "config": {}}, "center": true, "momentum": 0.999}}, {"name": "block_2_expand", "inbound_nodes": [[["block_1_project_BN", 0, 0, {}]]], "class_name": "Conv2D", "config": {"data_format": "channels_last", "kernel_regularizer": null, "padding": "same", "trainable": true, "strides": [1, 1], "filters": 144, "activation": "linear", "dilation_rate": [1, 1], "kernel_size": [1, 1], "bias_constraint": null, "kernel_initializer": {"class_name": "VarianceScaling", "config": {"seed": null, "mode": "fan_avg", "scale": 1.0, "distribution": "uniform"}}, "name": "block_2_expand", "activity_regularizer": null, "bias_initializer": {"class_name": "Zeros", "config": {}}, "use_bias": false, "bias_regularizer": null, "kernel_constraint": null}}, {"name": "block_2_expand_BN", "inbound_nodes": [[["block_2_expand", 0, 0, {}]]], "class_name": "BatchNormalization", "config": {"moving_variance_initializer": {"class_name": "Ones", "config": {}}, "trainable": true, "beta_regularizer": null, "epsilon": 0.001, "gamma_initializer": {"class_name": "Ones", "config": {}}, "axis": -1, "moving_mean_initializer": {"class_name": "Zeros", "config": {}}, "gamma_regularizer": null, "beta_constraint": null, "scale": true, "gamma_constraint": null, "name": "block_2_expand_BN", "beta_initializer": {"class_name": "Zeros", "config": {}}, "center": true, "momentum": 0.999}}, {"name": "block_2_expand_relu", "inbound_nodes": [[["block_2_expand_BN", 0, 0, {}]]], "class_name": "ReLU", "config": {"name": "block_2_expand_relu", "max_value": 6.0, "negative_slope": 0.0, "trainable": true, "threshold": 0.0}}, {"name": "block_2_depthwise", "inbound_nodes": [[["block_2_expand_relu", 0, 0, {}]]], "class_name": "DepthwiseConv2D", "config": {"data_format": "channels_last", "depthwise_constraint": null, "padding": "same", "dilation_rate": [1, 1], "trainable": true, "strides": [1, 1], "bias_regularizer": null, "depth_multiplier": 1, "use_bias": false, "kernel_size": [3, 3], "bias_constraint": null, "depthwise_initializer": {"class_name": "VarianceScaling", "config": {"seed": null, "mode": "fan_avg", "scale": 1.0, "distribution": "uniform"}}, "name": "block_2_depthwise", "activity_regularizer": null, "bias_initializer": {"class_name": "Zeros", "config": {}}, "activation": "linear", "depthwise_regularizer": null}}, {"name": "block_2_depthwise_BN", "inbound_nodes": [[["block_2_depthwise", 0, 0, {}]]], "class_name": "BatchNormalization", "config": {"moving_variance_initializer": {"class_name": "Ones", "config": {}}, "trainable": true, "beta_regularizer": null, "epsilon": 0.001, "gamma_initializer": {"class_name": "Ones", "config": {}}, "axis": -1, "moving_mean_initializer": {"class_name": "Zeros", "config": {}}, "gamma_regularizer": null, "beta_constraint": null, "scale": true, "gamma_constraint": null, "name": "block_2_depthwise_BN", "beta_initializer": {"class_name": "Zeros", "config": {}}, "center": true, "momentum": 0.999}}, {"name": "block_2_depthwise_relu", "inbound_nodes": [[["block_2_depthwise_BN", 0, 0, {}]]], "class_name": "ReLU", "config": {"name": "block_2_depthwise_relu", "max_value": 6.0, "negative_slope": 0.0, "trainable": true, "threshold": 0.0}}, {"name": "block_2_project", "inbound_nodes": [[["block_2_depthwise_relu", 0, 0, {}]]], "class_name": "Conv2D", "config": {"data_format": "channels_last", "kernel_regularizer": null, "padding": "same", "trainable": true, "strides": [1, 1], "filters": 24, "activation": "linear", "dilation_rate": [1, 1], "kernel_size": [1, 1], "bias_constraint": null, "kernel_initializer": {"class_name": "VarianceScaling", "config": {"seed": null, "mode": "fan_avg", "scale": 1.0, "distribution": "uniform"}}, "name": "block_2_project", "activity_regularizer": null, "bias_initializer": {"class_name": "Zeros", "config": {}}, "use_bias": false, "bias_regularizer": null, "kernel_constraint": null}}, {"name": "block_2_project_BN", "inbound_nodes": [[["block_2_project", 0, 0, {}]]], "class_name": "BatchNormalization", "config": {"moving_variance_initializer": {"class_name": "Ones", "config": {}}, "trainable": true, "beta_regularizer": null, "epsilon": 0.001, "gamma_initializer": {"class_name": "Ones", "config": {}}, "axis": -1, "moving_mean_initializer": {"class_name": "Zeros", "config": {}}, "gamma_regularizer": null, "beta_constraint": null, "scale": true, "gamma_constraint": null, "name": "block_2_project_BN", "beta_initializer": {"class_name": "Zeros", "config": {}}, "center": true, "momentum": 0.999}}, {"name": "block_2_add", "inbound_nodes": [[["block_1_project_BN", 0, 0, {}], ["block_2_project_BN", 0, 0, {}]]], "class_name": "Add", "config": {"name": "block_2_add", "trainable": true}}, {"name": "block_3_expand", "inbound_nodes": [[["block_2_add", 0, 0, {}]]], "class_name": "Conv2D", "config": {"data_format": "channels_last", "kernel_regularizer": null, "padding": "same", "trainable": true, "strides": [1, 1], "filters": 144, "activation": "linear", "dilation_rate": [1, 1], "kernel_size": [1, 1], "bias_constraint": null, "kernel_initializer": {"class_name": "VarianceScaling", "config": {"seed": null, "mode": "fan_avg", "scale": 1.0, "distribution": "uniform"}}, "name": "block_3_expand", "activity_regularizer": null, "bias_initializer": {"class_name": "Zeros", "config": {}}, "use_bias": false, "bias_regularizer": null, "kernel_constraint": null}}, {"name": "block_3_expand_BN", "inbound_nodes": [[["block_3_expand", 0, 0, {}]]], "class_name": "BatchNormalization", "config": {"moving_variance_initializer": {"class_name": "Ones", "config": {}}, "trainable": true, "beta_regularizer": null, "epsilon": 0.001, "gamma_initializer": {"class_name": "Ones", "config": {}}, "axis": -1, "moving_mean_initializer": {"class_name": "Zeros", "config": {}}, "gamma_regularizer": null, "beta_constraint": null, "scale": true, "gamma_constraint": null, "name": "block_3_expand_BN", "beta_initializer": {"class_name": "Zeros", "config": {}}, "center": true, "momentum": 0.999}}, {"name": "block_3_expand_relu", "inbound_nodes": [[["block_3_expand_BN", 0, 0, {}]]], "class_name": "ReLU", "config": {"name": "block_3_expand_relu", "max_value": 6.0, "negative_slope": 0.0, "trainable": true, "threshold": 0.0}}, {"name": "block_3_pad", "inbound_nodes": [[["block_3_expand_relu", 0, 0, {}]]], "class_name": "ZeroPadding2D", "config": {"name": "block_3_pad", "data_format": "channels_last", "padding": [[0, 1], [0, 1]], "trainable": true}}, {"name": "block_3_depthwise", "inbound_nodes": [[["block_3_pad", 0, 0, {}]]], "class_name": "DepthwiseConv2D", "config": {"data_format": "channels_last", "depthwise_constraint": null, "padding": "valid", "dilation_rate": [1, 1], "trainable": true, "strides": [2, 2], "bias_regularizer": null, "depth_multiplier": 1, "use_bias": false, "kernel_size": [3, 3], "bias_constraint": null, "depthwise_initializer": {"class_name": "VarianceScaling", "config": {"seed": null, "mode": "fan_avg", "scale": 1.0, "distribution": "uniform"}}, "name": "block_3_depthwise", "activity_regularizer": null, "bias_initializer": {"class_name": "Zeros", "config": {}}, "activation": "linear", "depthwise_regularizer": null}}, {"name": "block_3_depthwise_BN", "inbound_nodes": [[["block_3_depthwise", 0, 0, {}]]], "class_name": "BatchNormalization", "config": {"moving_variance_initializer": {"class_name": "Ones", "config": {}}, "trainable": true, "beta_regularizer": null, "epsilon": 0.001, "gamma_initializer": {"class_name": "Ones", "config": {}}, "axis": -1, "moving_mean_initializer": {"class_name": "Zeros", "config": {}}, "gamma_regularizer": null, "beta_constraint": null, "scale": true, "gamma_constraint": null, "name": "block_3_depthwise_BN", "beta_initializer": {"class_name": "Zeros", "config": {}}, "center": true, "momentum": 0.999}}, {"name": "block_3_depthwise_relu", "inbound_nodes": [[["block_3_depthwise_BN", 0, 0, {}]]], "class_name": "ReLU", "config": {"name": "block_3_depthwise_relu", "max_value": 6.0, "negative_slope": 0.0, "trainable": true, "threshold": 0.0}}, {"name": "block_3_project", "inbound_nodes": [[["block_3_depthwise_relu", 0, 0, {}]]], "class_name": "Conv2D", "config": {"data_format": "channels_last", "kernel_regularizer": null, "padding": "same", "trainable": true, "strides": [1, 1], "filters": 32, "activation": "linear", "dilation_rate": [1, 1], "kernel_size": [1, 1], "bias_constraint": null, "kernel_initializer": {"class_name": "VarianceScaling", "config": {"seed": null, "mode": "fan_avg", "scale": 1.0, "distribution": "uniform"}}, "name": "block_3_project", "activity_regularizer": null, "bias_initializer": {"class_name": "Zeros", "config": {}}, "use_bias": false, "bias_regularizer": null, "kernel_constraint": null}}, {"name": "block_3_project_BN", "inbound_nodes": [[["block_3_project", 0, 0, {}]]], "class_name": "BatchNormalization", "config": {"moving_variance_initializer": {"class_name": "Ones", "config": {}}, "trainable": true, "beta_regularizer": null, "epsilon": 0.001, "gamma_initializer": {"class_name": "Ones", "config": {}}, "axis": -1, "moving_mean_initializer": {"class_name": "Zeros", "config": {}}, "gamma_regularizer": null, "beta_constraint": null, "scale": true, "gamma_constraint": null, "name": "block_3_project_BN", "beta_initializer": {"class_name": "Zeros", "config": {}}, "center": true, "momentum": 0.999}}, {"name": "block_4_expand", "inbound_nodes": [[["block_3_project_BN", 0, 0, {}]]], "class_name": "Conv2D", "config": {"data_format": "channels_last", "kernel_regularizer": null, "padding": "same", "trainable": true, "strides": [1, 1], "filters": 192, "activation": "linear", "dilation_rate": [1, 1], "kernel_size": [1, 1], "bias_constraint": null, "kernel_initializer": {"class_name": "VarianceScaling", "config": {"seed": null, "mode": "fan_avg", "scale": 1.0, "distribution": "uniform"}}, "name": "block_4_expand", "activity_regularizer": null, "bias_initializer": {"class_name": "Zeros", "config": {}}, "use_bias": false, "bias_regularizer": null, "kernel_constraint": null}}, {"name": "block_4_expand_BN", "inbound_nodes": [[["block_4_expand", 0, 0, {}]]], "class_name": "BatchNormalization", "config": {"moving_variance_initializer": {"class_name": "Ones", "config": {}}, "trainable": true, "beta_regularizer": null, "epsilon": 0.001, "gamma_initializer": {"class_name": "Ones", "config": {}}, "axis": -1, "moving_mean_initializer": {"class_name": "Zeros", "config": {}}, "gamma_regularizer": null, "beta_constraint": null, "scale": true, "gamma_constraint": null, "name": "block_4_expand_BN", "beta_initializer": {"class_name": "Zeros", "config": {}}, "center": true, "momentum": 0.999}}, {"name": "block_4_expand_relu", "inbound_nodes": [[["block_4_expand_BN", 0, 0, {}]]], "class_name": "ReLU", "config": {"name": "block_4_expand_relu", "max_value": 6.0, "negative_slope": 0.0, "trainable": true, "threshold": 0.0}}, {"name": "block_4_depthwise", "inbound_nodes": [[["block_4_expand_relu", 0, 0, {}]]], "class_name": "DepthwiseConv2D", "config": {"data_format": "channels_last", "depthwise_constraint": null, "padding": "same", "dilation_rate": [1, 1], "trainable": true, "strides": [1, 1], "bias_regularizer": null, "depth_multiplier": 1, "use_bias": false, "kernel_size": [3, 3], "bias_constraint": null, "depthwise_initializer": {"class_name": "VarianceScaling", "config": {"seed": null, "mode": "fan_avg", "scale": 1.0, "distribution": "uniform"}}, "name": "block_4_depthwise", "activity_regularizer": null, "bias_initializer": {"class_name": "Zeros", "config": {}}, "activation": "linear", "depthwise_regularizer": null}}, {"name": "block_4_depthwise_BN", "inbound_nodes": [[["block_4_depthwise", 0, 0, {}]]], "class_name": "BatchNormalization", "config": {"moving_variance_initializer": {"class_name": "Ones", "config": {}}, "trainable": true, "beta_regularizer": null, "epsilon": 0.001, "gamma_initializer": {"class_name": "Ones", "config": {}}, "axis": -1, "moving_mean_initializer": {"class_name": "Zeros", "config": {}}, "gamma_regularizer": null, "beta_constraint": null, "scale": true, "gamma_constraint": null, "name": "block_4_depthwise_BN", "beta_initializer": {"class_name": "Zeros", "config": {}}, "center": true, "momentum": 0.999}}, {"name": "block_4_depthwise_relu", "inbound_nodes": [[["block_4_depthwise_BN", 0, 0, {}]]], "class_name": "ReLU", "config": {"name": "block_4_depthwise_relu", "max_value": 6.0, "negative_slope": 0.0, "trainable": true, "threshold": 0.0}}, {"name": "block_4_project", "inbound_nodes": [[["block_4_depthwise_relu", 0, 0, {}]]], "class_name": "Conv2D", "config": {"data_format": "channels_last", "kernel_regularizer": null, "padding": "same", "trainable": true, "strides": [1, 1], "filters": 32, "activation": "linear", "dilation_rate": [1, 1], "kernel_size": [1, 1], "bias_constraint": null, "kernel_initializer": {"class_name": "VarianceScaling", "config": {"seed": null, "mode": "fan_avg", "scale": 1.0, "distribution": "uniform"}}, "name": "block_4_project", "activity_regularizer": null, "bias_initializer": {"class_name": "Zeros", "config": {}}, "use_bias": false, "bias_regularizer": null, "kernel_constraint": null}}, {"name": "block_4_project_BN", "inbound_nodes": [[["block_4_project", 0, 0, {}]]], "class_name": "BatchNormalization", "config": {"moving_variance_initializer": {"class_name": "Ones", "config": {}}, "trainable": true, "beta_regularizer": null, "epsilon": 0.001, "gamma_initializer": {"class_name": "Ones", "config": {}}, "axis": -1, "moving_mean_initializer": {"class_name": "Zeros", "config": {}}, "gamma_regularizer": null, "beta_constraint": null, "scale": true, "gamma_constraint": null, "name": "block_4_project_BN", "beta_initializer": {"class_name": "Zeros", "config": {}}, "center": true, "momentum": 0.999}}, {"name": "block_4_add", "inbound_nodes": [[["block_3_project_BN", 0, 0, {}], ["block_4_project_BN", 0, 0, {}]]], "class_name": "Add", "config": {"name": "block_4_add", "trainable": true}}, {"name": "block_5_expand", "inbound_nodes": [[["block_4_add", 0, 0, {}]]], "class_name": "Conv2D", "config": {"data_format": "channels_last", "kernel_regularizer": null, "padding": "same", "trainable": true, "strides": [1, 1], "filters": 192, "activation": "linear", "dilation_rate": [1, 1], "kernel_size": [1, 1], "bias_constraint": null, "kernel_initializer": {"class_name": "VarianceScaling", "config": {"seed": null, "mode": "fan_avg", "scale": 1.0, "distribution": "uniform"}}, "name": "block_5_expand", "activity_regularizer": null, "bias_initializer": {"class_name": "Zeros", "config": {}}, "use_bias": false, "bias_regularizer": null, "kernel_constraint": null}}, {"name": "block_5_expand_BN", "inbound_nodes": [[["block_5_expand", 0, 0, {}]]], "class_name": "BatchNormalization", "config": {"moving_variance_initializer": {"class_name": "Ones", "config": {}}, "trainable": true, "beta_regularizer": null, "epsilon": 0.001, "gamma_initializer": {"class_name": "Ones", "config": {}}, "axis": -1, "moving_mean_initializer": {"class_name": "Zeros", "config": {}}, "gamma_regularizer": null, "beta_constraint": null, "scale": true, "gamma_constraint": null, "name": "block_5_expand_BN", "beta_initializer": {"class_name": "Zeros", "config": {}}, "center": true, "momentum": 0.999}}, {"name": "block_5_expand_relu", "inbound_nodes": [[["block_5_expand_BN", 0, 0, {}]]], "class_name": "ReLU", "config": {"name": "block_5_expand_relu", "max_value": 6.0, "negative_slope": 0.0, "trainable": true, "threshold": 0.0}}, {"name": "block_5_depthwise", "inbound_nodes": [[["block_5_expand_relu", 0, 0, {}]]], "class_name": "DepthwiseConv2D", "config": {"data_format": "channels_last", "depthwise_constraint": null, "padding": "same", "dilation_rate": [1, 1], "trainable": true, "strides": [1, 1], "bias_regularizer": null, "depth_multiplier": 1, "use_bias": false, "kernel_size": [3, 3], "bias_constraint": null, "depthwise_initializer": {"class_name": "VarianceScaling", "config": {"seed": null, "mode": "fan_avg", "scale": 1.0, "distribution": "uniform"}}, "name": "block_5_depthwise", "activity_regularizer": null, "bias_initializer": {"class_name": "Zeros", "config": {}}, "activation": "linear", "depthwise_regularizer": null}}, {"name": "block_5_depthwise_BN", "inbound_nodes": [[["block_5_depthwise", 0, 0, {}]]], "class_name": "BatchNormalization", "config": {"moving_variance_initializer": {"class_name": "Ones", "config": {}}, "trainable": true, "beta_regularizer": null, "epsilon": 0.001, "gamma_initializer": {"class_name": "Ones", "config": {}}, "axis": -1, "moving_mean_initializer": {"class_name": "Zeros", "config": {}}, "gamma_regularizer": null, "beta_constraint": null, "scale": true, "gamma_constraint": null, "name": "block_5_depthwise_BN", "beta_initializer": {"class_name": "Zeros", "config": {}}, "center": true, "momentum": 0.999}}, {"name": "block_5_depthwise_relu", "inbound_nodes": [[["block_5_depthwise_BN", 0, 0, {}]]], "class_name": "ReLU", "config": {"name": "block_5_depthwise_relu", "max_value": 6.0, "negative_slope": 0.0, "trainable": true, "threshold": 0.0}}, {"name": "block_5_project", "inbound_nodes": [[["block_5_depthwise_relu", 0, 0, {}]]], "class_name": "Conv2D", "config": {"data_format": "channels_last", "kernel_regularizer": null, "padding": "same", "trainable": true, "strides": [1, 1], "filters": 32, "activation": "linear", "dilation_rate": [1, 1], "kernel_size": [1, 1], "bias_constraint": null, "kernel_initializer": {"class_name": "VarianceScaling", "config": {"seed": null, "mode": "fan_avg", "scale": 1.0, "distribution": "uniform"}}, "name": "block_5_project", "activity_regularizer": null, "bias_initializer": {"class_name": "Zeros", "config": {}}, "use_bias": false, "bias_regularizer": null, "kernel_constraint": null}}, {"name": "block_5_project_BN", "inbound_nodes": [[["block_5_project", 0, 0, {}]]], "class_name": "BatchNormalization", "config": {"moving_variance_initializer": {"class_name": "Ones", "config": {}}, "trainable": true, "beta_regularizer": null, "epsilon": 0.001, "gamma_initializer": {"class_name": "Ones", "config": {}}, "axis": -1, "moving_mean_initializer": {"class_name": "Zeros", "config": {}}, "gamma_regularizer": null, "beta_constraint": null, "scale": true, "gamma_constraint": null, "name": "block_5_project_BN", "beta_initializer": {"class_name": "Zeros", "config": {}}, "center": true, "momentum": 0.999}}, {"name": "block_5_add", "inbound_nodes": [[["block_4_add", 0, 0, {}], ["block_5_project_BN", 0, 0, {}]]], "class_name": "Add", "config": {"name": "block_5_add", "trainable": true}}, {"name": "block_6_expand", "inbound_nodes": [[["block_5_add", 0, 0, {}]]], "class_name": "Conv2D", "config": {"data_format": "channels_last", "kernel_regularizer": null, "padding": "same", "trainable": true, "strides": [1, 1], "filters": 192, "activation": "linear", "dilation_rate": [1, 1], "kernel_size": [1, 1], "bias_constraint": null, "kernel_initializer": {"class_name": "VarianceScaling", "config": {"seed": null, "mode": "fan_avg", "scale": 1.0, "distribution": "uniform"}}, "name": "block_6_expand", "activity_regularizer": null, "bias_initializer": {"class_name": "Zeros", "config": {}}, "use_bias": false, "bias_regularizer": null, "kernel_constraint": null}}, {"name": "block_6_expand_BN", "inbound_nodes": [[["block_6_expand", 0, 0, {}]]], "class_name": "BatchNormalization", "config": {"moving_variance_initializer": {"class_name": "Ones", "config": {}}, "trainable": true, "beta_regularizer": null, "epsilon": 0.001, "gamma_initializer": {"class_name": "Ones", "config": {}}, "axis": -1, "moving_mean_initializer": {"class_name": "Zeros", "config": {}}, "gamma_regularizer": null, "beta_constraint": null, "scale": true, "gamma_constraint": null, "name": "block_6_expand_BN", "beta_initializer": {"class_name": "Zeros", "config": {}}, "center": true, "momentum": 0.999}}, {"name": "block_6_expand_relu", "inbound_nodes": [[["block_6_expand_BN", 0, 0, {}]]], "class_name": "ReLU", "config": {"name": "block_6_expand_relu", "max_value": 6.0, "negative_slope": 0.0, "trainable": true, "threshold": 0.0}}, {"name": "block_6_pad", "inbound_nodes": [[["block_6_expand_relu", 0, 0, {}]]], "class_name": "ZeroPadding2D", "config": {"name": "block_6_pad", "data_format": "channels_last", "padding": [[0, 1], [0, 1]], "trainable": true}}, {"name": "block_6_depthwise", "inbound_nodes": [[["block_6_pad", 0, 0, {}]]], "class_name": "DepthwiseConv2D", "config": {"data_format": "channels_last", "depthwise_constraint": null, "padding": "valid", "dilation_rate": [1, 1], "trainable": true, "strides": [2, 2], "bias_regularizer": null, "depth_multiplier": 1, "use_bias": false, "kernel_size": [3, 3], "bias_constraint": null, "depthwise_initializer": {"class_name": "VarianceScaling", "config": {"seed": null, "mode": "fan_avg", "scale": 1.0, "distribution": "uniform"}}, "name": "block_6_depthwise", "activity_regularizer": null, "bias_initializer": {"class_name": "Zeros", "config": {}}, "activation": "linear", "depthwise_regularizer": null}}, {"name": "block_6_depthwise_BN", "inbound_nodes": [[["block_6_depthwise", 0, 0, {}]]], "class_name": "BatchNormalization", "config": {"moving_variance_initializer": {"class_name": "Ones", "config": {}}, "trainable": true, "beta_regularizer": null, "epsilon": 0.001, "gamma_initializer": {"class_name": "Ones", "config": {}}, "axis": -1, "moving_mean_initializer": {"class_name": "Zeros", "config": {}}, "gamma_regularizer": null, "beta_constraint": null, "scale": true, "gamma_constraint": null, "name": "block_6_depthwise_BN", "beta_initializer": {"class_name": "Zeros", "config": {}}, "center": true, "momentum": 0.999}}, {"name": "block_6_depthwise_relu", "inbound_nodes": [[["block_6_depthwise_BN", 0, 0, {}]]], "class_name": "ReLU", "config": {"name": "block_6_depthwise_relu", "max_value": 6.0, "negative_slope": 0.0, "trainable": true, "threshold": 0.0}}, {"name": "block_6_project", "inbound_nodes": [[["block_6_depthwise_relu", 0, 0, {}]]], "class_name": "Conv2D", "config": {"data_format": "channels_last", "kernel_regularizer": null, "padding": "same", "trainable": true, "strides": [1, 1], "filters": 64, "activation": "linear", "dilation_rate": [1, 1], "kernel_size": [1, 1], "bias_constraint": null, "kernel_initializer": {"class_name": "VarianceScaling", "config": {"seed": null, "mode": "fan_avg", "scale": 1.0, "distribution": "uniform"}}, "name": "block_6_project", "activity_regularizer": null, "bias_initializer": {"class_name": "Zeros", "config": {}}, "use_bias": false, "bias_regularizer": null, "kernel_constraint": null}}, {"name": "block_6_project_BN", "inbound_nodes": [[["block_6_project", 0, 0, {}]]], "class_name": "BatchNormalization", "config": {"moving_variance_initializer": {"class_name": "Ones", "config": {}}, "trainable": true, "beta_regularizer": null, "epsilon": 0.001, "gamma_initializer": {"class_name": "Ones", "config": {}}, "axis": -1, "moving_mean_initializer": {"class_name": "Zeros", "config": {}}, "gamma_regularizer": null, "beta_constraint": null, "scale": true, "gamma_constraint": null, "name": "block_6_project_BN", "beta_initializer": {"class_name": "Zeros", "config": {}}, "center": true, "momentum": 0.999}}, {"name": "block_7_expand", "inbound_nodes": [[["block_6_project_BN", 0, 0, {}]]], "class_name": "Conv2D", "config": {"data_format": "channels_last", "kernel_regularizer": null, "padding": "same", "trainable": true, "strides": [1, 1], "filters": 384, "activation": "linear", "dilation_rate": [1, 1], "kernel_size": [1, 1], "bias_constraint": null, "kernel_initializer": {"class_name": "VarianceScaling", "config": {"seed": null, "mode": "fan_avg", "scale": 1.0, "distribution": "uniform"}}, "name": "block_7_expand", "activity_regularizer": null, "bias_initializer": {"class_name": "Zeros", "config": {}}, "use_bias": false, "bias_regularizer": null, "kernel_constraint": null}}, {"name": "block_7_expand_BN", "inbound_nodes": [[["block_7_expand", 0, 0, {}]]], "class_name": "BatchNormalization", "config": {"moving_variance_initializer": {"class_name": "Ones", "config": {}}, "trainable": true, "beta_regularizer": null, "epsilon": 0.001, "gamma_initializer": {"class_name": "Ones", "config": {}}, "axis": -1, "moving_mean_initializer": {"class_name": "Zeros", "config": {}}, "gamma_regularizer": null, "beta_constraint": null, "scale": true, "gamma_constraint": null, "name": "block_7_expand_BN", "beta_initializer": {"class_name": "Zeros", "config": {}}, "center": true, "momentum": 0.999}}, {"name": "block_7_expand_relu", "inbound_nodes": [[["block_7_expand_BN", 0, 0, {}]]], "class_name": "ReLU", "config": {"name": "block_7_expand_relu", "max_value": 6.0, "negative_slope": 0.0, "trainable": true, "threshold": 0.0}}, {"name": "block_7_depthwise", "inbound_nodes": [[["block_7_expand_relu", 0, 0, {}]]], "class_name": "DepthwiseConv2D", "config": {"data_format": "channels_last", "depthwise_constraint": null, "padding": "same", "dilation_rate": [1, 1], "trainable": true, "strides": [1, 1], "bias_regularizer": null, "depth_multiplier": 1, "use_bias": false, "kernel_size": [3, 3], "bias_constraint": null, "depthwise_initializer": {"class_name": "VarianceScaling", "config": {"seed": null, "mode": "fan_avg", "scale": 1.0, "distribution": "uniform"}}, "name": "block_7_depthwise", "activity_regularizer": null, "bias_initializer": {"class_name": "Zeros", "config": {}}, "activation": "linear", "depthwise_regularizer": null}}, {"name": "block_7_depthwise_BN", "inbound_nodes": [[["block_7_depthwise", 0, 0, {}]]], "class_name": "BatchNormalization", "config": {"moving_variance_initializer": {"class_name": "Ones", "config": {}}, "trainable": true, "beta_regularizer": null, "epsilon": 0.001, "gamma_initializer": {"class_name": "Ones", "config": {}}, "axis": -1, "moving_mean_initializer": {"class_name": "Zeros", "config": {}}, "gamma_regularizer": null, "beta_constraint": null, "scale": true, "gamma_constraint": null, "name": "block_7_depthwise_BN", "beta_initializer": {"class_name": "Zeros", "config": {}}, "center": true, "momentum": 0.999}}, {"name": "block_7_depthwise_relu", "inbound_nodes": [[["block_7_depthwise_BN", 0, 0, {}]]], "class_name": "ReLU", "config": {"name": "block_7_depthwise_relu", "max_value": 6.0, "negative_slope": 0.0, "trainable": true, "threshold": 0.0}}, {"name": "block_7_project", "inbound_nodes": [[["block_7_depthwise_relu", 0, 0, {}]]], "class_name": "Conv2D", "config": {"data_format": "channels_last", "kernel_regularizer": null, "padding": "same", "trainable": true, "strides": [1, 1], "filters": 64, "activation": "linear", "dilation_rate": [1, 1], "kernel_size": [1, 1], "bias_constraint": null, "kernel_initializer": {"class_name": "VarianceScaling", "config": {"seed": null, "mode": "fan_avg", "scale": 1.0, "distribution": "uniform"}}, "name": "block_7_project", "activity_regularizer": null, "bias_initializer": {"class_name": "Zeros", "config": {}}, "use_bias": false, "bias_regularizer": null, "kernel_constraint": null}}, {"name": "block_7_project_BN", "inbound_nodes": [[["block_7_project", 0, 0, {}]]], "class_name": "BatchNormalization", "config": {"moving_variance_initializer": {"class_name": "Ones", "config": {}}, "trainable": true, "beta_regularizer": null, "epsilon": 0.001, "gamma_initializer": {"class_name": "Ones", "config": {}}, "axis": -1, "moving_mean_initializer": {"class_name": "Zeros", "config": {}}, "gamma_regularizer": null, "beta_constraint": null, "scale": true, "gamma_constraint": null, "name": "block_7_project_BN", "beta_initializer": {"class_name": "Zeros", "config": {}}, "center": true, "momentum": 0.999}}, {"name": "block_7_add", "inbound_nodes": [[["block_6_project_BN", 0, 0, {}], ["block_7_project_BN", 0, 0, {}]]], "class_name": "Add", "config": {"name": "block_7_add", "trainable": true}}, {"name": "block_8_expand", "inbound_nodes": [[["block_7_add", 0, 0, {}]]], "class_name": "Conv2D", "config": {"data_format": "channels_last", "kernel_regularizer": null, "padding": "same", "trainable": true, "strides": [1, 1], "filters": 384, "activation": "linear", "dilation_rate": [1, 1], "kernel_size": [1, 1], "bias_constraint": null, "kernel_initializer": {"class_name": "VarianceScaling", "config": {"seed": null, "mode": "fan_avg", "scale": 1.0, "distribution": "uniform"}}, "name": "block_8_expand", "activity_regularizer": null, "bias_initializer": {"class_name": "Zeros", "config": {}}, "use_bias": false, "bias_regularizer": null, "kernel_constraint": null}}, {"name": "block_8_expand_BN", "inbound_nodes": [[["block_8_expand", 0, 0, {}]]], "class_name": "BatchNormalization", "config": {"moving_variance_initializer": {"class_name": "Ones", "config": {}}, "trainable": true, "beta_regularizer": null, "epsilon": 0.001, "gamma_initializer": {"class_name": "Ones", "config": {}}, "axis": -1, "moving_mean_initializer": {"class_name": "Zeros", "config": {}}, "gamma_regularizer": null, "beta_constraint": null, "scale": true, "gamma_constraint": null, "name": "block_8_expand_BN", "beta_initializer": {"class_name": "Zeros", "config": {}}, "center": true, "momentum": 0.999}}, {"name": "block_8_expand_relu", "inbound_nodes": [[["block_8_expand_BN", 0, 0, {}]]], "class_name": "ReLU", "config": {"name": "block_8_expand_relu", "max_value": 6.0, "negative_slope": 0.0, "trainable": true, "threshold": 0.0}}, {"name": "block_8_depthwise", "inbound_nodes": [[["block_8_expand_relu", 0, 0, {}]]], "class_name": "DepthwiseConv2D", "config": {"data_format": "channels_last", "depthwise_constraint": null, "padding": "same", "dilation_rate": [1, 1], "trainable": true, "strides": [1, 1], "bias_regularizer": null, "depth_multiplier": 1, "use_bias": false, "kernel_size": [3, 3], "bias_constraint": null, "depthwise_initializer": {"class_name": "VarianceScaling", "config": {"seed": null, "mode": "fan_avg", "scale": 1.0, "distribution": "uniform"}}, "name": "block_8_depthwise", "activity_regularizer": null, "bias_initializer": {"class_name": "Zeros", "config": {}}, "activation": "linear", "depthwise_regularizer": null}}, {"name": "block_8_depthwise_BN", "inbound_nodes": [[["block_8_depthwise", 0, 0, {}]]], "class_name": "BatchNormalization", "config": {"moving_variance_initializer": {"class_name": "Ones", "config": {}}, "trainable": true, "beta_regularizer": null, "epsilon": 0.001, "gamma_initializer": {"class_name": "Ones", "config": {}}, "axis": -1, "moving_mean_initializer": {"class_name": "Zeros", "config": {}}, "gamma_regularizer": null, "beta_constraint": null, "scale": true, "gamma_constraint": null, "name": "block_8_depthwise_BN", "beta_initializer": {"class_name": "Zeros", "config": {}}, "center": true, "momentum": 0.999}}, {"name": "block_8_depthwise_relu", "inbound_nodes": [[["block_8_depthwise_BN", 0, 0, {}]]], "class_name": "ReLU", "config": {"name": "block_8_depthwise_relu", "max_value": 6.0, "negative_slope": 0.0, "trainable": true, "threshold": 0.0}}, {"name": "block_8_project", "inbound_nodes": [[["block_8_depthwise_relu", 0, 0, {}]]], "class_name": "Conv2D", "config": {"data_format": "channels_last", "kernel_regularizer": null, "padding": "same", "trainable": true, "strides": [1, 1], "filters": 64, "activation": "linear", "dilation_rate": [1, 1], "kernel_size": [1, 1], "bias_constraint": null, "kernel_initializer": {"class_name": "VarianceScaling", "config": {"seed": null, "mode": "fan_avg", "scale": 1.0, "distribution": "uniform"}}, "name": "block_8_project", "activity_regularizer": null, "bias_initializer": {"class_name": "Zeros", "config": {}}, "use_bias": false, "bias_regularizer": null, "kernel_constraint": null}}, {"name": "block_8_project_BN", "inbound_nodes": [[["block_8_project", 0, 0, {}]]], "class_name": "BatchNormalization", "config": {"moving_variance_initializer": {"class_name": "Ones", "config": {}}, "trainable": true, "beta_regularizer": null, "epsilon": 0.001, "gamma_initializer": {"class_name": "Ones", "config": {}}, "axis": -1, "moving_mean_initializer": {"class_name": "Zeros", "config": {}}, "gamma_regularizer": null, "beta_constraint": null, "scale": true, "gamma_constraint": null, "name": "block_8_project_BN", "beta_initializer": {"class_name": "Zeros", "config": {}}, "center": true, "momentum": 0.999}}, {"name": "block_8_add", "inbound_nodes": [[["block_7_add", 0, 0, {}], ["block_8_project_BN", 0, 0, {}]]], "class_name": "Add", "config": {"name": "block_8_add", "trainable": true}}, {"name": "block_9_expand", "inbound_nodes": [[["block_8_add", 0, 0, {}]]], "class_name": "Conv2D", "config": {"data_format": "channels_last", "kernel_regularizer": null, "padding": "same", "trainable": true, "strides": [1, 1], "filters": 384, "activation": "linear", "dilation_rate": [1, 1], "kernel_size": [1, 1], "bias_constraint": null, "kernel_initializer": {"class_name": "VarianceScaling", "config": {"seed": null, "mode": "fan_avg", "scale": 1.0, "distribution": "uniform"}}, "name": "block_9_expand", "activity_regularizer": null, "bias_initializer": {"class_name": "Zeros", "config": {}}, "use_bias": false, "bias_regularizer": null, "kernel_constraint": null}}, {"name": "block_9_expand_BN", "inbound_nodes": [[["block_9_expand", 0, 0, {}]]], "class_name": "BatchNormalization", "config": {"moving_variance_initializer": {"class_name": "Ones", "config": {}}, "trainable": true, "beta_regularizer": null, "epsilon": 0.001, "gamma_initializer": {"class_name": "Ones", "config": {}}, "axis": -1, "moving_mean_initializer": {"class_name": "Zeros", "config": {}}, "gamma_regularizer": null, "beta_constraint": null, "scale": true, "gamma_constraint": null, "name": "block_9_expand_BN", "beta_initializer": {"class_name": "Zeros", "config": {}}, "center": true, "momentum": 0.999}}, {"name": "block_9_expand_relu", "inbound_nodes": [[["block_9_expand_BN", 0, 0, {}]]], "class_name": "ReLU", "config": {"name": "block_9_expand_relu", "max_value": 6.0, "negative_slope": 0.0, "trainable": true, "threshold": 0.0}}, {"name": "block_9_depthwise", "inbound_nodes": [[["block_9_expand_relu", 0, 0, {}]]], "class_name": "DepthwiseConv2D", "config": {"data_format": "channels_last", "depthwise_constraint": null, "padding": "same", "dilation_rate": [1, 1], "trainable": true, "strides": [1, 1], "bias_regularizer": null, "depth_multiplier": 1, "use_bias": false, "kernel_size": [3, 3], "bias_constraint": null, "depthwise_initializer": {"class_name": "VarianceScaling", "config": {"seed": null, "mode": "fan_avg", "scale": 1.0, "distribution": "uniform"}}, "name": "block_9_depthwise", "activity_regularizer": null, "bias_initializer": {"class_name": "Zeros", "config": {}}, "activation": "linear", "depthwise_regularizer": null}}, {"name": "block_9_depthwise_BN", "inbound_nodes": [[["block_9_depthwise", 0, 0, {}]]], "class_name": "BatchNormalization", "config": {"moving_variance_initializer": {"class_name": "Ones", "config": {}}, "trainable": true, "beta_regularizer": null, "epsilon": 0.001, "gamma_initializer": {"class_name": "Ones", "config": {}}, "axis": -1, "moving_mean_initializer": {"class_name": "Zeros", "config": {}}, "gamma_regularizer": null, "beta_constraint": null, "scale": true, "gamma_constraint": null, "name": "block_9_depthwise_BN", "beta_initializer": {"class_name": "Zeros", "config": {}}, "center": true, "momentum": 0.999}}, {"name": "block_9_depthwise_relu", "inbound_nodes": [[["block_9_depthwise_BN", 0, 0, {}]]], "class_name": "ReLU", "config": {"name": "block_9_depthwise_relu", "max_value": 6.0, "negative_slope": 0.0, "trainable": true, "threshold": 0.0}}, {"name": "block_9_project", "inbound_nodes": [[["block_9_depthwise_relu", 0, 0, {}]]], "class_name": "Conv2D", "config": {"data_format": "channels_last", "kernel_regularizer": null, "padding": "same", "trainable": true, "strides": [1, 1], "filters": 64, "activation": "linear", "dilation_rate": [1, 1], "kernel_size": [1, 1], "bias_constraint": null, "kernel_initializer": {"class_name": "VarianceScaling", "config": {"seed": null, "mode": "fan_avg", "scale": 1.0, "distribution": "uniform"}}, "name": "block_9_project", "activity_regularizer": null, "bias_initializer": {"class_name": "Zeros", "config": {}}, "use_bias": false, "bias_regularizer": null, "kernel_constraint": null}}, {"name": "block_9_project_BN", "inbound_nodes": [[["block_9_project", 0, 0, {}]]], "class_name": "BatchNormalization", "config": {"moving_variance_initializer": {"class_name": "Ones", "config": {}}, "trainable": true, "beta_regularizer": null, "epsilon": 0.001, "gamma_initializer": {"class_name": "Ones", "config": {}}, "axis": -1, "moving_mean_initializer": {"class_name": "Zeros", "config": {}}, "gamma_regularizer": null, "beta_constraint": null, "scale": true, "gamma_constraint": null, "name": "block_9_project_BN", "beta_initializer": {"class_name": "Zeros", "config": {}}, "center": true, "momentum": 0.999}}, {"name": "block_9_add", "inbound_nodes": [[["block_8_add", 0, 0, {}], ["block_9_project_BN", 0, 0, {}]]], "class_name": "Add", "config": {"name": "block_9_add", "trainable": true}}, {"name": "block_10_expand", "inbound_nodes": [[["block_9_add", 0, 0, {}]]], "class_name": "Conv2D", "config": {"data_format": "channels_last", "kernel_regularizer": null, "padding": "same", "trainable": true, "strides": [1, 1], "filters": 384, "activation": "linear", "dilation_rate": [1, 1], "kernel_size": [1, 1], "bias_constraint": null, "kernel_initializer": {"class_name": "VarianceScaling", "config": {"seed": null, "mode": "fan_avg", "scale": 1.0, "distribution": "uniform"}}, "name": "block_10_expand", "activity_regularizer": null, "bias_initializer": {"class_name": "Zeros", "config": {}}, "use_bias": false, "bias_regularizer": null, "kernel_constraint": null}}, {"name": "block_10_expand_BN", "inbound_nodes": [[["block_10_expand", 0, 0, {}]]], "class_name": "BatchNormalization", "config": {"moving_variance_initializer": {"class_name": "Ones", "config": {}}, "trainable": true, "beta_regularizer": null, "epsilon": 0.001, "gamma_initializer": {"class_name": "Ones", "config": {}}, "axis": -1, "moving_mean_initializer": {"class_name": "Zeros", "config": {}}, "gamma_regularizer": null, "beta_constraint": null, "scale": true, "gamma_constraint": null, "name": "block_10_expand_BN", "beta_initializer": {"class_name": "Zeros", "config": {}}, "center": true, "momentum": 0.999}}, {"name": "block_10_expand_relu", "inbound_nodes": [[["block_10_expand_BN", 0, 0, {}]]], "class_name": "ReLU", "config": {"name": "block_10_expand_relu", "max_value": 6.0, "negative_slope": 0.0, "trainable": true, "threshold": 0.0}}, {"name": "block_10_depthwise", "inbound_nodes": [[["block_10_expand_relu", 0, 0, {}]]], "class_name": "DepthwiseConv2D", "config": {"data_format": "channels_last", "depthwise_constraint": null, "padding": "same", "dilation_rate": [1, 1], "trainable": true, "strides": [1, 1], "bias_regularizer": null, "depth_multiplier": 1, "use_bias": false, "kernel_size": [3, 3], "bias_constraint": null, "depthwise_initializer": {"class_name": "VarianceScaling", "config": {"seed": null, "mode": "fan_avg", "scale": 1.0, "distribution": "uniform"}}, "name": "block_10_depthwise", "activity_regularizer": null, "bias_initializer": {"class_name": "Zeros", "config": {}}, "activation": "linear", "depthwise_regularizer": null}}, {"name": "block_10_depthwise_BN", "inbound_nodes": [[["block_10_depthwise", 0, 0, {}]]], "class_name": "BatchNormalization", "config": {"moving_variance_initializer": {"class_name": "Ones", "config": {}}, "trainable": true, "beta_regularizer": null, "epsilon": 0.001, "gamma_initializer": {"class_name": "Ones", "config": {}}, "axis": -1, "moving_mean_initializer": {"class_name": "Zeros", "config": {}}, "gamma_regularizer": null, "beta_constraint": null, "scale": true, "gamma_constraint": null, "name": "block_10_depthwise_BN", "beta_initializer": {"class_name": "Zeros", "config": {}}, "center": true, "momentum": 0.999}}, {"name": "block_10_depthwise_relu", "inbound_nodes": [[["block_10_depthwise_BN", 0, 0, {}]]], "class_name": "ReLU", "config": {"name": "block_10_depthwise_relu", "max_value": 6.0, "negative_slope": 0.0, "trainable": true, "threshold": 0.0}}, {"name": "block_10_project", "inbound_nodes": [[["block_10_depthwise_relu", 0, 0, {}]]], "class_name": "Conv2D", "config": {"data_format": "channels_last", "kernel_regularizer": null, "padding": "same", "trainable": true, "strides": [1, 1], "filters": 96, "activation": "linear", "dilation_rate": [1, 1], "kernel_size": [1, 1], "bias_constraint": null, "kernel_initializer": {"class_name": "VarianceScaling", "config": {"seed": null, "mode": "fan_avg", "scale": 1.0, "distribution": "uniform"}}, "name": "block_10_project", "activity_regularizer": null, "bias_initializer": {"class_name": "Zeros", "config": {}}, "use_bias": false, "bias_regularizer": null, "kernel_constraint": null}}, {"name": "block_10_project_BN", "inbound_nodes": [[["block_10_project", 0, 0, {}]]], "class_name": "BatchNormalization", "config": {"moving_variance_initializer": {"class_name": "Ones", "config": {}}, "trainable": true, "beta_regularizer": null, "epsilon": 0.001, "gamma_initializer": {"class_name": "Ones", "config": {}}, "axis": -1, "moving_mean_initializer": {"class_name": "Zeros", "config": {}}, "gamma_regularizer": null, "beta_constraint": null, "scale": true, "gamma_constraint": null, "name": "block_10_project_BN", "beta_initializer": {"class_name": "Zeros", "config": {}}, "center": true, "momentum": 0.999}}, {"name": "block_11_expand", "inbound_nodes": [[["block_10_project_BN", 0, 0, {}]]], "class_name": "Conv2D", "config": {"data_format": "channels_last", "kernel_regularizer": null, "padding": "same", "trainable": true, "strides": [1, 1], "filters": 576, "activation": "linear", "dilation_rate": [1, 1], "kernel_size": [1, 1], "bias_constraint": null, "kernel_initializer": {"class_name": "VarianceScaling", "config": {"seed": null, "mode": "fan_avg", "scale": 1.0, "distribution": "uniform"}}, "name": "block_11_expand", "activity_regularizer": null, "bias_initializer": {"class_name": "Zeros", "config": {}}, "use_bias": false, "bias_regularizer": null, "kernel_constraint": null}}, {"name": "block_11_expand_BN", "inbound_nodes": [[["block_11_expand", 0, 0, {}]]], "class_name": "BatchNormalization", "config": {"moving_variance_initializer": {"class_name": "Ones", "config": {}}, "trainable": true, "beta_regularizer": null, "epsilon": 0.001, "gamma_initializer": {"class_name": "Ones", "config": {}}, "axis": -1, "moving_mean_initializer": {"class_name": "Zeros", "config": {}}, "gamma_regularizer": null, "beta_constraint": null, "scale": true, "gamma_constraint": null, "name": "block_11_expand_BN", "beta_initializer": {"class_name": "Zeros", "config": {}}, "center": true, "momentum": 0.999}}, {"name": "block_11_expand_relu", "inbound_nodes": [[["block_11_expand_BN", 0, 0, {}]]], "class_name": "ReLU", "config": {"name": "block_11_expand_relu", "max_value": 6.0, "negative_slope": 0.0, "trainable": true, "threshold": 0.0}}, {"name": "block_11_depthwise", "inbound_nodes": [[["block_11_expand_relu", 0, 0, {}]]], "class_name": "DepthwiseConv2D", "config": {"data_format": "channels_last", "depthwise_constraint": null, "padding": "same", "dilation_rate": [1, 1], "trainable": true, "strides": [1, 1], "bias_regularizer": null, "depth_multiplier": 1, "use_bias": false, "kernel_size": [3, 3], "bias_constraint": null, "depthwise_initializer": {"class_name": "VarianceScaling", "config": {"seed": null, "mode": "fan_avg", "scale": 1.0, "distribution": "uniform"}}, "name": "block_11_depthwise", "activity_regularizer": null, "bias_initializer": {"class_name": "Zeros", "config": {}}, "activation": "linear", "depthwise_regularizer": null}}, {"name": "block_11_depthwise_BN", "inbound_nodes": [[["block_11_depthwise", 0, 0, {}]]], "class_name": "BatchNormalization", "config": {"moving_variance_initializer": {"class_name": "Ones", "config": {}}, "trainable": true, "beta_regularizer": null, "epsilon": 0.001, "gamma_initializer": {"class_name": "Ones", "config": {}}, "axis": -1, "moving_mean_initializer": {"class_name": "Zeros", "config": {}}, "gamma_regularizer": null, "beta_constraint": null, "scale": true, "gamma_constraint": null, "name": "block_11_depthwise_BN", "beta_initializer": {"class_name": "Zeros", "config": {}}, "center": true, "momentum": 0.999}}, {"name": "block_11_depthwise_relu", "inbound_nodes": [[["block_11_depthwise_BN", 0, 0, {}]]], "class_name": "ReLU", "config": {"name": "block_11_depthwise_relu", "max_value": 6.0, "negative_slope": 0.0, "trainable": true, "threshold": 0.0}}, {"name": "block_11_project", "inbound_nodes": [[["block_11_depthwise_relu", 0, 0, {}]]], "class_name": "Conv2D", "config": {"data_format": "channels_last", "kernel_regularizer": null, "padding": "same", "trainable": true, "strides": [1, 1], "filters": 96, "activation": "linear", "dilation_rate": [1, 1], "kernel_size": [1, 1], "bias_constraint": null, "kernel_initializer": {"class_name": "VarianceScaling", "config": {"seed": null, "mode": "fan_avg", "scale": 1.0, "distribution": "uniform"}}, "name": "block_11_project", "activity_regularizer": null, "bias_initializer": {"class_name": "Zeros", "config": {}}, "use_bias": false, "bias_regularizer": null, "kernel_constraint": null}}, {"name": "block_11_project_BN", "inbound_nodes": [[["block_11_project", 0, 0, {}]]], "class_name": "BatchNormalization", "config": {"moving_variance_initializer": {"class_name": "Ones", "config": {}}, "trainable": true, "beta_regularizer": null, "epsilon": 0.001, "gamma_initializer": {"class_name": "Ones", "config": {}}, "axis": -1, "moving_mean_initializer": {"class_name": "Zeros", "config": {}}, "gamma_regularizer": null, "beta_constraint": null, "scale": true, "gamma_constraint": null, "name": "block_11_project_BN", "beta_initializer": {"class_name": "Zeros", "config": {}}, "center": true, "momentum": 0.999}}, {"name": "block_11_add", "inbound_nodes": [[["block_10_project_BN", 0, 0, {}], ["block_11_project_BN", 0, 0, {}]]], "class_name": "Add", "config": {"name": "block_11_add", "trainable": true}}, {"name": "block_12_expand", "inbound_nodes": [[["block_11_add", 0, 0, {}]]], "class_name": "Conv2D", "config": {"data_format": "channels_last", "kernel_regularizer": null, "padding": "same", "trainable": true, "strides": [1, 1], "filters": 576, "activation": "linear", "dilation_rate": [1, 1], "kernel_size": [1, 1], "bias_constraint": null, "kernel_initializer": {"class_name": "VarianceScaling", "config": {"seed": null, "mode": "fan_avg", "scale": 1.0, "distribution": "uniform"}}, "name": "block_12_expand", "activity_regularizer": null, "bias_initializer": {"class_name": "Zeros", "config": {}}, "use_bias": false, "bias_regularizer": null, "kernel_constraint": null}}, {"name": "block_12_expand_BN", "inbound_nodes": [[["block_12_expand", 0, 0, {}]]], "class_name": "BatchNormalization", "config": {"moving_variance_initializer": {"class_name": "Ones", "config": {}}, "trainable": true, "beta_regularizer": null, "epsilon": 0.001, "gamma_initializer": {"class_name": "Ones", "config": {}}, "axis": -1, "moving_mean_initializer": {"class_name": "Zeros", "config": {}}, "gamma_regularizer": null, "beta_constraint": null, "scale": true, "gamma_constraint": null, "name": "block_12_expand_BN", "beta_initializer": {"class_name": "Zeros", "config": {}}, "center": true, "momentum": 0.999}}, {"name": "block_12_expand_relu", "inbound_nodes": [[["block_12_expand_BN", 0, 0, {}]]], "class_name": "ReLU", "config": {"name": "block_12_expand_relu", "max_value": 6.0, "negative_slope": 0.0, "trainable": true, "threshold": 0.0}}, {"name": "block_12_depthwise", "inbound_nodes": [[["block_12_expand_relu", 0, 0, {}]]], "class_name": "DepthwiseConv2D", "config": {"data_format": "channels_last", "depthwise_constraint": null, "padding": "same", "dilation_rate": [1, 1], "trainable": true, "strides": [1, 1], "bias_regularizer": null, "depth_multiplier": 1, "use_bias": false, "kernel_size": [3, 3], "bias_constraint": null, "depthwise_initializer": {"class_name": "VarianceScaling", "config": {"seed": null, "mode": "fan_avg", "scale": 1.0, "distribution": "uniform"}}, "name": "block_12_depthwise", "activity_regularizer": null, "bias_initializer": {"class_name": "Zeros", "config": {}}, "activation": "linear", "depthwise_regularizer": null}}, {"name": "block_12_depthwise_BN", "inbound_nodes": [[["block_12_depthwise", 0, 0, {}]]], "class_name": "BatchNormalization", "config": {"moving_variance_initializer": {"class_name": "Ones", "config": {}}, "trainable": true, "beta_regularizer": null, "epsilon": 0.001, "gamma_initializer": {"class_name": "Ones", "config": {}}, "axis": -1, "moving_mean_initializer": {"class_name": "Zeros", "config": {}}, "gamma_regularizer": null, "beta_constraint": null, "scale": true, "gamma_constraint": null, "name": "block_12_depthwise_BN", "beta_initializer": {"class_name": "Zeros", "config": {}}, "center": true, "momentum": 0.999}}, {"name": "block_12_depthwise_relu", "inbound_nodes": [[["block_12_depthwise_BN", 0, 0, {}]]], "class_name": "ReLU", "config": {"name": "block_12_depthwise_relu", "max_value": 6.0, "negative_slope": 0.0, "trainable": true, "threshold": 0.0}}, {"name": "block_12_project", "inbound_nodes": [[["block_12_depthwise_relu", 0, 0, {}]]], "class_name": "Conv2D", "config": {"data_format": "channels_last", "kernel_regularizer": null, "padding": "same", "trainable": true, "strides": [1, 1], "filters": 96, "activation": "linear", "dilation_rate": [1, 1], "kernel_size": [1, 1], "bias_constraint": null, "kernel_initializer": {"class_name": "VarianceScaling", "config": {"seed": null, "mode": "fan_avg", "scale": 1.0, "distribution": "uniform"}}, "name": "block_12_project", "activity_regularizer": null, "bias_initializer": {"class_name": "Zeros", "config": {}}, "use_bias": false, "bias_regularizer": null, "kernel_constraint": null}}, {"name": "block_12_project_BN", "inbound_nodes": [[["block_12_project", 0, 0, {}]]], "class_name": "BatchNormalization", "config": {"moving_variance_initializer": {"class_name": "Ones", "config": {}}, "trainable": true, "beta_regularizer": null, "epsilon": 0.001, "gamma_initializer": {"class_name": "Ones", "config": {}}, "axis": -1, "moving_mean_initializer": {"class_name": "Zeros", "config": {}}, "gamma_regularizer": null, "beta_constraint": null, "scale": true, "gamma_constraint": null, "name": "block_12_project_BN", "beta_initializer": {"class_name": "Zeros", "config": {}}, "center": true, "momentum": 0.999}}, {"name": "block_12_add", "inbound_nodes": [[["block_11_add", 0, 0, {}], ["block_12_project_BN", 0, 0, {}]]], "class_name": "Add", "config": {"name": "block_12_add", "trainable": true}}, {"name": "block_13_expand", "inbound_nodes": [[["block_12_add", 0, 0, {}]]], "class_name": "Conv2D", "config": {"data_format": "channels_last", "kernel_regularizer": null, "padding": "same", "trainable": true, "strides": [1, 1], "filters": 576, "activation": "linear", "dilation_rate": [1, 1], "kernel_size": [1, 1], "bias_constraint": null, "kernel_initializer": {"class_name": "VarianceScaling", "config": {"seed": null, "mode": "fan_avg", "scale": 1.0, "distribution": "uniform"}}, "name": "block_13_expand", "activity_regularizer": null, "bias_initializer": {"class_name": "Zeros", "config": {}}, "use_bias": false, "bias_regularizer": null, "kernel_constraint": null}}, {"name": "block_13_expand_BN", "inbound_nodes": [[["block_13_expand", 0, 0, {}]]], "class_name": "BatchNormalization", "config": {"moving_variance_initializer": {"class_name": "Ones", "config": {}}, "trainable": true, "beta_regularizer": null, "epsilon": 0.001, "gamma_initializer": {"class_name": "Ones", "config": {}}, "axis": -1, "moving_mean_initializer": {"class_name": "Zeros", "config": {}}, "gamma_regularizer": null, "beta_constraint": null, "scale": true, "gamma_constraint": null, "name": "block_13_expand_BN", "beta_initializer": {"class_name": "Zeros", "config": {}}, "center": true, "momentum": 0.999}}, {"name": "block_13_expand_relu", "inbound_nodes": [[["block_13_expand_BN", 0, 0, {}]]], "class_name": "ReLU", "config": {"name": "block_13_expand_relu", "max_value": 6.0, "negative_slope": 0.0, "trainable": true, "threshold": 0.0}}, {"name": "block_13_pad", "inbound_nodes": [[["block_13_expand_relu", 0, 0, {}]]], "class_name": "ZeroPadding2D", "config": {"name": "block_13_pad", "data_format": "channels_last", "padding": [[0, 1], [0, 1]], "trainable": true}}, {"name": "block_13_depthwise", "inbound_nodes": [[["block_13_pad", 0, 0, {}]]], "class_name": "DepthwiseConv2D", "config": {"data_format": "channels_last", "depthwise_constraint": null, "padding": "valid", "dilation_rate": [1, 1], "trainable": true, "strides": [2, 2], "bias_regularizer": null, "depth_multiplier": 1, "use_bias": false, "kernel_size": [3, 3], "bias_constraint": null, "depthwise_initializer": {"class_name": "VarianceScaling", "config": {"seed": null, "mode": "fan_avg", "scale": 1.0, "distribution": "uniform"}}, "name": "block_13_depthwise", "activity_regularizer": null, "bias_initializer": {"class_name": "Zeros", "config": {}}, "activation": "linear", "depthwise_regularizer": null}}, {"name": "block_13_depthwise_BN", "inbound_nodes": [[["block_13_depthwise", 0, 0, {}]]], "class_name": "BatchNormalization", "config": {"moving_variance_initializer": {"class_name": "Ones", "config": {}}, "trainable": true, "beta_regularizer": null, "epsilon": 0.001, "gamma_initializer": {"class_name": "Ones", "config": {}}, "axis": -1, "moving_mean_initializer": {"class_name": "Zeros", "config": {}}, "gamma_regularizer": null, "beta_constraint": null, "scale": true, "gamma_constraint": null, "name": "block_13_depthwise_BN", "beta_initializer": {"class_name": "Zeros", "config": {}}, "center": true, "momentum": 0.999}}, {"name": "block_13_depthwise_relu", "inbound_nodes": [[["block_13_depthwise_BN", 0, 0, {}]]], "class_name": "ReLU", "config": {"name": "block_13_depthwise_relu", "max_value": 6.0, "negative_slope": 0.0, "trainable": true, "threshold": 0.0}}, {"name": "block_13_project", "inbound_nodes": [[["block_13_depthwise_relu", 0, 0, {}]]], "class_name": "Conv2D", "config": {"data_format": "channels_last", "kernel_regularizer": null, "padding": "same", "trainable": true, "strides": [1, 1], "filters": 160, "activation": "linear", "dilation_rate": [1, 1], "kernel_size": [1, 1], "bias_constraint": null, "kernel_initializer": {"class_name": "VarianceScaling", "config": {"seed": null, "mode": "fan_avg", "scale": 1.0, "distribution": "uniform"}}, "name": "block_13_project", "activity_regularizer": null, "bias_initializer": {"class_name": "Zeros", "config": {}}, "use_bias": false, "bias_regularizer": null, "kernel_constraint": null}}, {"name": "block_13_project_BN", "inbound_nodes": [[["block_13_project", 0, 0, {}]]], "class_name": "BatchNormalization", "config": {"moving_variance_initializer": {"class_name": "Ones", "config": {}}, "trainable": true, "beta_regularizer": null, "epsilon": 0.001, "gamma_initializer": {"class_name": "Ones", "config": {}}, "axis": -1, "moving_mean_initializer": {"class_name": "Zeros", "config": {}}, "gamma_regularizer": null, "beta_constraint": null, "scale": true, "gamma_constraint": null, "name": "block_13_project_BN", "beta_initializer": {"class_name": "Zeros", "config": {}}, "center": true, "momentum": 0.999}}, {"name": "block_14_expand", "inbound_nodes": [[["block_13_project_BN", 0, 0, {}]]], "class_name": "Conv2D", "config": {"data_format": "channels_last", "kernel_regularizer": null, "padding": "same", "trainable": true, "strides": [1, 1], "filters": 960, "activation": "linear", "dilation_rate": [1, 1], "kernel_size": [1, 1], "bias_constraint": null, "kernel_initializer": {"class_name": "VarianceScaling", "config": {"seed": null, "mode": "fan_avg", "scale": 1.0, "distribution": "uniform"}}, "name": "block_14_expand", "activity_regularizer": null, "bias_initializer": {"class_name": "Zeros", "config": {}}, "use_bias": false, "bias_regularizer": null, "kernel_constraint": null}}, {"name": "block_14_expand_BN", "inbound_nodes": [[["block_14_expand", 0, 0, {}]]], "class_name": "BatchNormalization", "config": {"moving_variance_initializer": {"class_name": "Ones", "config": {}}, "trainable": true, "beta_regularizer": null, "epsilon": 0.001, "gamma_initializer": {"class_name": "Ones", "config": {}}, "axis": -1, "moving_mean_initializer": {"class_name": "Zeros", "config": {}}, "gamma_regularizer": null, "beta_constraint": null, "scale": true, "gamma_constraint": null, "name": "block_14_expand_BN", "beta_initializer": {"class_name": "Zeros", "config": {}}, "center": true, "momentum": 0.999}}, {"name": "block_14_expand_relu", "inbound_nodes": [[["block_14_expand_BN", 0, 0, {}]]], "class_name": "ReLU", "config": {"name": "block_14_expand_relu", "max_value": 6.0, "negative_slope": 0.0, "trainable": true, "threshold": 0.0}}, {"name": "block_14_depthwise", "inbound_nodes": [[["block_14_expand_relu", 0, 0, {}]]], "class_name": "DepthwiseConv2D", "config": {"data_format": "channels_last", "depthwise_constraint": null, "padding": "same", "dilation_rate": [1, 1], "trainable": true, "strides": [1, 1], "bias_regularizer": null, "depth_multiplier": 1, "use_bias": false, "kernel_size": [3, 3], "bias_constraint": null, "depthwise_initializer": {"class_name": "VarianceScaling", "config": {"seed": null, "mode": "fan_avg", "scale": 1.0, "distribution": "uniform"}}, "name": "block_14_depthwise", "activity_regularizer": null, "bias_initializer": {"class_name": "Zeros", "config": {}}, "activation": "linear", "depthwise_regularizer": null}}, {"name": "block_14_depthwise_BN", "inbound_nodes": [[["block_14_depthwise", 0, 0, {}]]], "class_name": "BatchNormalization", "config": {"moving_variance_initializer": {"class_name": "Ones", "config": {}}, "trainable": true, "beta_regularizer": null, "epsilon": 0.001, "gamma_initializer": {"class_name": "Ones", "config": {}}, "axis": -1, "moving_mean_initializer": {"class_name": "Zeros", "config": {}}, "gamma_regularizer": null, "beta_constraint": null, "scale": true, "gamma_constraint": null, "name": "block_14_depthwise_BN", "beta_initializer": {"class_name": "Zeros", "config": {}}, "center": true, "momentum": 0.999}}, {"name": "block_14_depthwise_relu", "inbound_nodes": [[["block_14_depthwise_BN", 0, 0, {}]]], "class_name": "ReLU", "config": {"name": "block_14_depthwise_relu", "max_value": 6.0, "negative_slope": 0.0, "trainable": true, "threshold": 0.0}}, {"name": "block_14_project", "inbound_nodes": [[["block_14_depthwise_relu", 0, 0, {}]]], "class_name": "Conv2D", "config": {"data_format": "channels_last", "kernel_regularizer": null, "padding": "same", "trainable": true, "strides": [1, 1], "filters": 160, "activation": "linear", "dilation_rate": [1, 1], "kernel_size": [1, 1], "bias_constraint": null, "kernel_initializer": {"class_name": "VarianceScaling", "config": {"seed": null, "mode": "fan_avg", "scale": 1.0, "distribution": "uniform"}}, "name": "block_14_project", "activity_regularizer": null, "bias_initializer": {"class_name": "Zeros", "config": {}}, "use_bias": false, "bias_regularizer": null, "kernel_constraint": null}}, {"name": "block_14_project_BN", "inbound_nodes": [[["block_14_project", 0, 0, {}]]], "class_name": "BatchNormalization", "config": {"moving_variance_initializer": {"class_name": "Ones", "config": {}}, "trainable": true, "beta_regularizer": null, "epsilon": 0.001, "gamma_initializer": {"class_name": "Ones", "config": {}}, "axis": -1, "moving_mean_initializer": {"class_name": "Zeros", "config": {}}, "gamma_regularizer": null, "beta_constraint": null, "scale": true, "gamma_constraint": null, "name": "block_14_project_BN", "beta_initializer": {"class_name": "Zeros", "config": {}}, "center": true, "momentum": 0.999}}, {"name": "block_14_add", "inbound_nodes": [[["block_13_project_BN", 0, 0, {}], ["block_14_project_BN", 0, 0, {}]]], "class_name": "Add", "config": {"name": "block_14_add", "trainable": true}}, {"name": "block_15_expand", "inbound_nodes": [[["block_14_add", 0, 0, {}]]], "class_name": "Conv2D", "config": {"data_format": "channels_last", "kernel_regularizer": null, "padding": "same", "trainable": true, "strides": [1, 1], "filters": 960, "activation": "linear", "dilation_rate": [1, 1], "kernel_size": [1, 1], "bias_constraint": null, "kernel_initializer": {"class_name": "VarianceScaling", "config": {"seed": null, "mode": "fan_avg", "scale": 1.0, "distribution": "uniform"}}, "name": "block_15_expand", "activity_regularizer": null, "bias_initializer": {"class_name": "Zeros", "config": {}}, "use_bias": false, "bias_regularizer": null, "kernel_constraint": null}}, {"name": "block_15_expand_BN", "inbound_nodes": [[["block_15_expand", 0, 0, {}]]], "class_name": "BatchNormalization", "config": {"moving_variance_initializer": {"class_name": "Ones", "config": {}}, "trainable": true, "beta_regularizer": null, "epsilon": 0.001, "gamma_initializer": {"class_name": "Ones", "config": {}}, "axis": -1, "moving_mean_initializer": {"class_name": "Zeros", "config": {}}, "gamma_regularizer": null, "beta_constraint": null, "scale": true, "gamma_constraint": null, "name": "block_15_expand_BN", "beta_initializer": {"class_name": "Zeros", "config": {}}, "center": true, "momentum": 0.999}}, {"name": "block_15_expand_relu", "inbound_nodes": [[["block_15_expand_BN", 0, 0, {}]]], "class_name": "ReLU", "config": {"name": "block_15_expand_relu", "max_value": 6.0, "negative_slope": 0.0, "trainable": true, "threshold": 0.0}}, {"name": "block_15_depthwise", "inbound_nodes": [[["block_15_expand_relu", 0, 0, {}]]], "class_name": "DepthwiseConv2D", "config": {"data_format": "channels_last", "depthwise_constraint": null, "padding": "same", "dilation_rate": [1, 1], "trainable": true, "strides": [1, 1], "bias_regularizer": null, "depth_multiplier": 1, "use_bias": false, "kernel_size": [3, 3], "bias_constraint": null, "depthwise_initializer": {"class_name": "VarianceScaling", "config": {"seed": null, "mode": "fan_avg", "scale": 1.0, "distribution": "uniform"}}, "name": "block_15_depthwise", "activity_regularizer": null, "bias_initializer": {"class_name": "Zeros", "config": {}}, "activation": "linear", "depthwise_regularizer": null}}, {"name": "block_15_depthwise_BN", "inbound_nodes": [[["block_15_depthwise", 0, 0, {}]]], "class_name": "BatchNormalization", "config": {"moving_variance_initializer": {"class_name": "Ones", "config": {}}, "trainable": true, "beta_regularizer": null, "epsilon": 0.001, "gamma_initializer": {"class_name": "Ones", "config": {}}, "axis": -1, "moving_mean_initializer": {"class_name": "Zeros", "config": {}}, "gamma_regularizer": null, "beta_constraint": null, "scale": true, "gamma_constraint": null, "name": "block_15_depthwise_BN", "beta_initializer": {"class_name": "Zeros", "config": {}}, "center": true, "momentum": 0.999}}, {"name": "block_15_depthwise_relu", "inbound_nodes": [[["block_15_depthwise_BN", 0, 0, {}]]], "class_name": "ReLU", "config": {"name": "block_15_depthwise_relu", "max_value": 6.0, "negative_slope": 0.0, "trainable": true, "threshold": 0.0}}, {"name": "block_15_project", "inbound_nodes": [[["block_15_depthwise_relu", 0, 0, {}]]], "class_name": "Conv2D", "config": {"data_format": "channels_last", "kernel_regularizer": null, "padding": "same", "trainable": true, "strides": [1, 1], "filters": 160, "activation": "linear", "dilation_rate": [1, 1], "kernel_size": [1, 1], "bias_constraint": null, "kernel_initializer": {"class_name": "VarianceScaling", "config": {"seed": null, "mode": "fan_avg", "scale": 1.0, "distribution": "uniform"}}, "name": "block_15_project", "activity_regularizer": null, "bias_initializer": {"class_name": "Zeros", "config": {}}, "use_bias": false, "bias_regularizer": null, "kernel_constraint": null}}, {"name": "block_15_project_BN", "inbound_nodes": [[["block_15_project", 0, 0, {}]]], "class_name": "BatchNormalization", "config": {"moving_variance_initializer": {"class_name": "Ones", "config": {}}, "trainable": true, "beta_regularizer": null, "epsilon": 0.001, "gamma_initializer": {"class_name": "Ones", "config": {}}, "axis": -1, "moving_mean_initializer": {"class_name": "Zeros", "config": {}}, "gamma_regularizer": null, "beta_constraint": null, "scale": true, "gamma_constraint": null, "name": "block_15_project_BN", "beta_initializer": {"class_name": "Zeros", "config": {}}, "center": true, "momentum": 0.999}}, {"name": "block_15_add", "inbound_nodes": [[["block_14_add", 0, 0, {}], ["block_15_project_BN", 0, 0, {}]]], "class_name": "Add", "config": {"name": "block_15_add", "trainable": true}}, {"name": "block_16_expand", "inbound_nodes": [[["block_15_add", 0, 0, {}]]], "class_name": "Conv2D", "config": {"data_format": "channels_last", "kernel_regularizer": null, "padding": "same", "trainable": true, "strides": [1, 1], "filters": 960, "activation": "linear", "dilation_rate": [1, 1], "kernel_size": [1, 1], "bias_constraint": null, "kernel_initializer": {"class_name": "VarianceScaling", "config": {"seed": null, "mode": "fan_avg", "scale": 1.0, "distribution": "uniform"}}, "name": "block_16_expand", "activity_regularizer": null, "bias_initializer": {"class_name": "Zeros", "config": {}}, "use_bias": false, "bias_regularizer": null, "kernel_constraint": null}}, {"name": "block_16_expand_BN", "inbound_nodes": [[["block_16_expand", 0, 0, {}]]], "class_name": "BatchNormalization", "config": {"moving_variance_initializer": {"class_name": "Ones", "config": {}}, "trainable": true, "beta_regularizer": null, "epsilon": 0.001, "gamma_initializer": {"class_name": "Ones", "config": {}}, "axis": -1, "moving_mean_initializer": {"class_name": "Zeros", "config": {}}, "gamma_regularizer": null, "beta_constraint": null, "scale": true, "gamma_constraint": null, "name": "block_16_expand_BN", "beta_initializer": {"class_name": "Zeros", "config": {}}, "center": true, "momentum": 0.999}}, {"name": "block_16_expand_relu", "inbound_nodes": [[["block_16_expand_BN", 0, 0, {}]]], "class_name": "ReLU", "config": {"name": "block_16_expand_relu", "max_value": 6.0, "negative_slope": 0.0, "trainable": true, "threshold": 0.0}}, {"name": "block_16_depthwise", "inbound_nodes": [[["block_16_expand_relu", 0, 0, {}]]], "class_name": "DepthwiseConv2D", "config": {"data_format": "channels_last", "depthwise_constraint": null, "padding": "same", "dilation_rate": [1, 1], "trainable": true, "strides": [1, 1], "bias_regularizer": null, "depth_multiplier": 1, "use_bias": false, "kernel_size": [3, 3], "bias_constraint": null, "depthwise_initializer": {"class_name": "VarianceScaling", "config": {"seed": null, "mode": "fan_avg", "scale": 1.0, "distribution": "uniform"}}, "name": "block_16_depthwise", "activity_regularizer": null, "bias_initializer": {"class_name": "Zeros", "config": {}}, "activation": "linear", "depthwise_regularizer": null}}, {"name": "block_16_depthwise_BN", "inbound_nodes": [[["block_16_depthwise", 0, 0, {}]]], "class_name": "BatchNormalization", "config": {"moving_variance_initializer": {"class_name": "Ones", "config": {}}, "trainable": true, "beta_regularizer": null, "epsilon": 0.001, "gamma_initializer": {"class_name": "Ones", "config": {}}, "axis": -1, "moving_mean_initializer": {"class_name": "Zeros", "config": {}}, "gamma_regularizer": null, "beta_constraint": null, "scale": true, "gamma_constraint": null, "name": "block_16_depthwise_BN", "beta_initializer": {"class_name": "Zeros", "config": {}}, "center": true, "momentum": 0.999}}, {"name": "block_16_depthwise_relu", "inbound_nodes": [[["block_16_depthwise_BN", 0, 0, {}]]], "class_name": "ReLU", "config": {"name": "block_16_depthwise_relu", "max_value": 6.0, "negative_slope": 0.0, "trainable": true, "threshold": 0.0}}, {"name": "block_16_project", "inbound_nodes": [[["block_16_depthwise_relu", 0, 0, {}]]], "class_name": "Conv2D", "config": {"data_format": "channels_last", "kernel_regularizer": null, "padding": "same", "trainable": true, "strides": [1, 1], "filters": 320, "activation": "linear", "dilation_rate": [1, 1], "kernel_size": [1, 1], "bias_constraint": null, "kernel_initializer": {"class_name": "VarianceScaling", "config": {"seed": null, "mode": "fan_avg", "scale": 1.0, "distribution": "uniform"}}, "name": "block_16_project", "activity_regularizer": null, "bias_initializer": {"class_name": "Zeros", "config": {}}, "use_bias": false, "bias_regularizer": null, "kernel_constraint": null}}, {"name": "block_16_project_BN", "inbound_nodes": [[["block_16_project", 0, 0, {}]]], "class_name": "BatchNormalization", "config": {"moving_variance_initializer": {"class_name": "Ones", "config": {}}, "trainable": true, "beta_regularizer": null, "epsilon": 0.001, "gamma_initializer": {"class_name": "Ones", "config": {}}, "axis": -1, "moving_mean_initializer": {"class_name": "Zeros", "config": {}}, "gamma_regularizer": null, "beta_constraint": null, "scale": true, "gamma_constraint": null, "name": "block_16_project_BN", "beta_initializer": {"class_name": "Zeros", "config": {}}, "center": true, "momentum": 0.999}}, {"name": "Conv_1", "inbound_nodes": [[["block_16_project_BN", 0, 0, {}]]], "class_name": "Conv2D", "config": {"data_format": "channels_last", "kernel_regularizer": null, "padding": "valid", "trainable": true, "strides": [1, 1], "filters": 1280, "activation": "linear", "dilation_rate": [1, 1], "kernel_size": [1, 1], "bias_constraint": null, "kernel_initializer": {"class_name": "VarianceScaling", "config": {"seed": null, "mode": "fan_avg", "scale": 1.0, "distribution": "uniform"}}, "name": "Conv_1", "activity_regularizer": null, "bias_initializer": {"class_name": "Zeros", "config": {}}, "use_bias": false, "bias_regularizer": null, "kernel_constraint": null}}, {"name": "Conv_1_bn", "inbound_nodes": [[["Conv_1", 0, 0, {}]]], "class_name": "BatchNormalization", "config": {"moving_variance_initializer": {"class_name": "Ones", "config": {}}, "trainable": true, "beta_regularizer": null, "epsilon": 0.001, "gamma_initializer": {"class_name": "Ones", "config": {}}, "axis": -1, "moving_mean_initializer": {"class_name": "Zeros", "config": {}}, "gamma_regularizer": null, "beta_constraint": null, "scale": true, "gamma_constraint": null, "name": "Conv_1_bn", "beta_initializer": {"class_name": "Zeros", "config": {}}, "center": true, "momentum": 0.999}}, {"name": "out_relu", "inbound_nodes": [[["Conv_1_bn", 0, 0, {}]]], "class_name": "ReLU", "config": {"name": "out_relu", "max_value": 6.0, "negative_slope": 0.0, "trainable": true, "threshold": 0.0}}, {"name": "global_average_pooling2d_1", "inbound_nodes": [[["out_relu", 0, 0, {}]]], "class_name": "GlobalAveragePooling2D", "config": {"name": "global_average_pooling2d_1", "data_format": "channels_last", "trainable": true}}, {"name": "dense_1", "inbound_nodes": [[["global_average_pooling2d_1", 0, 0, {}]]], "class_name": "Dense", "config": {"bias_regularizer": null, "kernel_regularizer": null, "trainable": true, "bias_initializer": {"class_name": "Zeros", "config": {}}, "activation": "sigmoid", "bias_constraint": null, "kernel_initializer": {"class_name": "VarianceScaling", "config": {"seed": null, "mode": "fan_avg", "scale": 1.0, "distribution": "uniform"}}, "name": "dense_1", "activity_regularizer": null, "use_bias": true, "units": 22, "kernel_constraint": null}}], "output_layers": [["dense_1", 0, 0]], "input_layers": [["input_1", 0, 0]]}}